code/W2.npy (npy, 928 bytes, 1 tensors)

array f8 [10, 10]
00000000: 8480 81ad b169 f93f 192b 5549 fbc9 e8bf
00000010: 89ce 6d23 8171 ae3f eea6 ff4b aeef fbbf
00000020: 54dd dff4 df2b a73f 213c f306 9e1c f63f
00000030: 62b8 54a2 6169 fabf f908 3ab5 85e0 babf
00000040: 1623 ca53 cf95 dfbf 7dbb 03b4 0717 d4bf
00000050: 1006 586c 90a5 e2bf 2148 cf8e 175b fb3f
00000060: 8651 f107 1df2 9f3f a14b cef4 2ca5 ecbf
00000070: d94e d852 634a f03f 13de 55ce 962e f4bf
00000080: f0c0 942a 9f0b abbf f74b 5299 5a1c 01c0
00000090: 56a4 ea61 ae31 f5bf 2029 ae3f e18b c93f
000000a0: 9ccb 715b 94e0 ed3f fdc2 f104 cc6d c8bf
000000b0: 82bf ed8d e261 cebf f618 776c ffae e4bf
000000c0: 37f4 5fe5 2a04 edbf bf8c e60b ba0a d63f
000000d0: b2de fa74 69a3 e7bf 1249 5f61 85c4 e43f
000000e0: bc77 41d7 6334 da3f 109a 445e c78e fcbf
000000f0: f5ad 92af 7b66 fd3f bd7c 4d4f 0758 d6bf
00000100: ef8a 6118 c48c d2bf 7df9 13ea 6158 d03f
00000110: 71e2 896e b70f ff3f 2915 74fd be0a 0940
00000120: f364 ec54 c2b9 0cc0 abc8 170c 7d45 f4bf
00000130: 4337 264a accf e63f 1a87 7537 458f e73f
00000140: 4bcf 8ddf 9a76 c3bf 3983 c9ed 0789 a0bf
00000150: c4a9 31a2 2272 f3bf f291 b3c0 e0b0 f1bf
00000160: 4fa8 757b fb87 f33f 2a51 b711 df05 fb3f
00000170: 2051 5e55 b7f1 e9bf aa4d ff62 ccb4 e53f
00000180: 6596 f74a 4983 dc3f a1c4 8427 3890 e6bf
00000190: 9127 9330 11a5 d83f 727c 157c 136e f63f
000001a0: 3844 4bd5 1ed6 87bf 4346 6f1c 328b fb3f
000001b0: 2e23 1888 a541 03c0 2c0e e52e 864f ea3f
000001c0: 75c1 cfd8 4678 c8bf a7a9 1835 454d dfbf
000001d0: 4669 9bc2 8ccd b93f 66b6 2b05 59c9 ffbf
000001e0: 6671 80e2 6af4 f7bf c5ff fe25 16fd f53f
000001f0: 84ce 972b 6b75 adbf badc efaa 3f16 c0bf
00000200: 1b75 da4c 3928 eabf ffad 7212 42b5 03c0
00000210: 3d12 6cec 99b4 0b40 2634 812f 4505 ee3f
00000220: 1df0 e86d f6cd ecbf 48db 5c39 f7ff e33f
00000230: c6db a99d 9043 c6bf 6ae9 cf06 ce6a f43f
00000240: 5465 6de9 e778 f5bf b234 50bf 44c6 dabf
00000250: 8dcd 9f0e 378a 60bf 0fa0 c719 1934 f9bf
00000260: 7fc5 0547 dc7e ee3f 27e1 3068 14fa cb3f
00000270: aa3f 809f 7bd3 b4bf 8038 a6d0 2c00 ccbf
00000280: 2e57 ae22 cafa 0ac0 f599 5a83 f519 b03f
00000290: b0b4 38a5 adcb f0bf 29d7 2b7a a41a d83f
000002a0: 92d9 1045 3d16 f1bf 9049 74ac 3caa 0ac0
000002b0: 33e0 e4ca 33a5 1340 baf1 a176 117f f33f
000002c0: e3e1 2151 b5d0 d1bf e53b f021 946e c33f
000002d0: 002a 184b 0936 01c0 a631 ec66 fa41 8e3f
000002e0: 694a 9ca0 57a1 a33f 5d3f 021c 8701 0640
000002f0: 6d1c c7bb 211e cbbf 5ffb 7e35 84d5 ccbf
00000300: 238b 81bf 0bfd c23f aa4a e05e 6187 f2bf
00000310: d447 1c40 df11 f13f 54ba 619f d5a5 e73f
1.5883042123387279 -0.7746559555319862 0.05945972020608987 -1.7460158318230543 0.04525661338987655 1.3819866439332673 -1.6507278767635616 -0.1049884383628842
-0.49351866896226804 -0.31390564517544545 -0.5827104679194139 1.7097392633918462 0.03119702683427896 -0.8951630383838741 1.0181611286288244 -1.2613742885567987
-0.052823041866192244 -2.1388446787109348 -1.3246291947237032 0.1995812951029814 0.9336644922280928 -0.19085073701310043 -0.23736221246826622 -0.6463620298825663
-0.9067587356545407 0.34440470850149646 -0.7386977467312674 0.6489893819619132 0.40944763203685475 -1.7848581011145406 1.8375202997511881 -0.3491228365364341
-0.289841674623104 0.25539443835432235 1.9413370435633193 3.1302470971155754 -3.5907026896135164 -1.266964957464135 0.712850708792509 0.7362390597520261
-0.1520570365497583 -0.03229546334910655 -1.21536506039648 -1.1056830909157012 1.220698816551266 1.6889334384951078 -0.8107563655235346 0.6783201154270746
0.44551307984361294 -0.7051049014900351 0.38507489913592347 1.4018740508106728 -0.011638871082512478 1.7214833365182052 -2.4070540077558666 0.8222075382149732
-0.19117055498601201 -0.48909120736302686 0.10079269171857161 -1.9866571619017122 -1.4971722457622376 1.3742887005064273 -0.05753645808354427 -0.12567897650271737
-0.817410135368536 -2.463504928707834 3.4631842108231283 0.9381433418108187 -0.9001419207265858 0.6249958153119701 -0.1739369172898632 1.276075388536436
-1.342018043351648 -0.4183513515752778 -0.002019031079720518 -1.575219250395097 0.9529858958396032 0.2185693272347262 -0.08135197300020872 -0.2187553423686417
-3.372455855317546 0.06289610344774828 -1.0497261480298157 0.37662612849031746 -1.0679295251735295 -3.333123538302239 4.911330385417432 1.218522513779233
-0.27836354182320927 0.15181209237240903 -2.151384913134507 0.014774280801724892 0.03834031901910324 2.7507459819970976 -0.21185704869114677 -0.2252660046778727
0.1483473477447542 -1.1580518442248526 1.0668632988276743 0.7389934647488396
